Food_detector/models/05_going_modular_script_mode_tinyvgg_model.pth (torch, 35719 bytes, 10 tensors)

conv_block_1.0.weight f4 [10, 3, 3, 3]
000000 9b 60 34 3e cf fd d8 bc 94 b4 97 bd 6a 1a f6 bd
       0.17614977 -0.026488213 -0.074074894 -0.12016757
000010 1c 69 ab bc b4 6f 0c be fb f6 f3 3d 90 cb 8a 3c
       -0.020924143 -0.13714486 0.11912342 0.01694277
000020 b7 04 12 be be 0e 5b bd 79 1f cd bd a0 43 ab bd
       -0.14259611 -0.053480856 -0.100157686 -0.08362508
000030 76 c2 c5 3d c9 ec f9 3d 82 fd e3 bd c1 4d e8 bd
       0.09656231 0.12203366 -0.11132337 -0.113429554
000040 28 60 55 3d d9 96 21 3d dc 50 df 3d 06 8d ac 3d
       0.052093655 0.0394505 0.109040946 0.084253356
000050 cf 1f 9d 3d bc 8e c6 3d 10 af 17 be b9 20 d9 bd
       0.07672083 0.09695193 -0.14812875 -0.106019445
000060 3d 73 59 bd bd cd 07 3e 1f fb cc 3d 36 91 93 3d
       -0.053088415 0.13262077 0.10008835 0.07205431
000070 9b 77 de bd 83 d0 9a bd 9a 6a fe 3c 58 ee a4 3d
       -0.10862657 -0.07559302 0.031056691 0.08053273
000080 5d 17 59 3c 7c 99 73 3d 90 38 3b bd 40 cf c1 3d
       0.013250199 0.059472546 -0.04570824 0.09463358
000090 8b 23 44 3d 89 88 20 3e 77 51 4d 3d 83 6c ca 3d
       0.04788546 0.15677084 0.05012652 0.09883978
0000a0 90 d9 b5 bc 99 5e 8d bd 25 54 83 3c 3f c3 17 be
       -0.022198468 -0.06902809 0.016031334 -0.14820574
0000b0 f0 c9 1a 3e c4 dc a0 bd a2 94 7d 3c f7 da 19 be
       0.15116096 -0.07854608 0.015477331 -0.15024935
0000c0 4f 1c 05 be 85 1f 1b bd 68 5a a1 3c cb 79 cd bc
       -0.1299908 -0.037871856 0.01969643 -0.02508249
0000d0 44 31 11 3e 09 86 20 3e d3 a0 24 be 66 de 3a be
       0.1417895 0.1567613 -0.16076975 -0.18248901
0000e0 83 eb 94 bd ab 49 e3 3d be 68 ca 3d 80 87 aa bd
       -0.07271483 0.110980354 0.09883259 -0.08326626
0000f0 15 eb 18 3d 76 6f dd 3d 2b 00 0b 3e 3a 26 f1 3c
       0.037333567 0.10812275 0.13574283 0.029437173
000100 df ad f8 bc 09 55 ea bb ba af 1b bd 7a 55 a9 3c
       -0.030356346 -0.0071512503 -0.038009383 0.020670641
000110 5b 0a 03 3b a4 17 88 bd 19 67 90 bd 88 be bb 3d
       0.0019995186 -0.06645134 -0.07050914 0.091672
000120 f1 92 87 3c 56 58 9e bc 6a 0f e4 3d 1e a4 34 3e
       0.01654956 -0.019329231 0.111357525 0.1764073
000130 38 cc 34 be a6 18 15 be 30 e4 23 3e da 20 16 3d
       -0.17656028 -0.14560184 0.16005015 0.036652423
000140 86 27 13 3e 93 51 d2 3d 5b 23 4b bc 40 82 2a 3d
       0.14370546 0.10269465 -0.012398566 0.041628122
000150 ae fb e6 bc ae 6b d8 3d 17 c7 9f 3d e1 a5 68 bd
       -0.028196182 0.10567413 0.07801645 -0.05679882
000160 57 54 18 3e 98 9a 00 be 1d 5b cb bd 13 97 40 3e
       0.14875923 -0.12558973 -0.09929488 0.1880763
000170 69 9e 48 bd 46 3a c3 bd ba 53 ba bc c4 5f fe bc
       -0.048979197 -0.09532599 -0.022745002 -0.031051524
000180 63 78 2a be 81 91 01 3e b3 22 1b bd 51 f5 0a 3e
       -0.16647486 0.12653162 -0.03787489 0.13570143
000190 10 82 00 3e 73 6d 1e 3e 5b 59 ca bc e8 c0 13 3e
       0.12549615 0.15471439 -0.024700811 0.14429057
0001a0 68 c5 27 be 87 84 ce bd 38 75 9d 3d cf c7 bd 3d
       -0.16383898 -0.10083871 0.07688373 0.09266626
0001b0 82 7e 23 3e 62 51 82 bd e1 09 44 3e d4 df a7 3d
       0.15966228 -0.06363179 0.19144394 0.08196989
0001c0 5d 34 c4 bd 68 5f 3d 3e 6c b9 13 bc 5c d9 00 be
       -0.095803 0.18493426 -0.009016376 -0.12582916
0001d0 13 c9 3a 3e 97 52 0d 3e c4 1b 01 3e 8f 78 e6 3d
       0.18240766 0.13801037 0.12608248 0.112534635
0001e0 00 3f 9b 3c 9c 53 1f 3e 40 2c 55 3d ae c3 ec 3d
       0.01895094 0.15559238 0.052044153 0.115607604
0001f0 26 55 9d bd ff db d3 3d 84 4f 92 3d 9a 6e ae 3d
       -0.076822564 0.10344695 0.07144073 0.08517189
000200 36 c3 36 be e7 94 f2 3d 6a 4e 1a be 7d 63 1a 3e
       -0.17847905 0.11844807 -0.15068975 0.15077014
000210 12 b7 3a 3e bb b0 34 be 7c 79 08 be 0a 7c 6e bd
       0.18233898 -0.17645542 -0.13327593 -0.05822376
000220 1d e9 e4 bd 25 90 1a bd 19 83 bb 3d 9d 2d 30 be
       -0.11177275 -0.037735123 0.09155864 -0.172049
000230 ea 5e 42 3d 28 d1 f9 bd 68 c6 18 3e e0 b9 d9 bd
       0.0474538 -0.121980965 0.14919436 -0.10631156
000240 d0 7e 60 3d 44 06 74 bd 1e 49 42 be 65 9d 82 3d
       0.054808438 -0.059576288 -0.18973204 0.06377677
000250 a1 79 cb 3d 60 91 4d 3d 3f c1 bc bd 06 8c 45 be
       0.09935308 0.05018747 -0.09216546 -0.19291696
000260 d6 c4 08 be a2 03 fc 3d f6 76 16 3d 48 fd fe bd
       -0.13356337 0.123053804 0.036734544 -0.12450653
000270 fc a7 22 3e d3 76 79 bd 90 43 f5 bd ce c8 3a be
       0.15884393 -0.060904335 -0.11975777 -0.18240663
000280 af 8c 0d 3e 9f 3d 97 3d 64 f2 d8 bd f0 a7 af bc
       0.13823198 0.073848 -0.10593107 -0.021442384
000290 41 19 72 bd 94 dd 01 be 2b fa 40 3e 3f ed d7 3b
       -0.059106115 -0.12682182 0.18845432 0.0065895612
0002a0 a9 e8 b1 3c f7 60 0e be 0c dc 0c 3c 1c 82 05 3e
       0.021717386 -0.13904177 0.008597385 0.13037914
0002b0 7b a8 44 be b6 d8 e8 3d 81 c9 e6 3c 9e 4e 43 3e
       -0.19204895 0.11369459 0.028172256 0.19072959
0002c0 62 30 62 bc b8 46 6b 3a 9c 3b af bd dc 38 aa b9
       -0.013805481 0.00089750765 -0.085562915 -0.0003246729
0002d0 eb 7a 1a 3e 79 b6 69 bd d7 15 b6 bd 11 22 ec bc
       0.15085952 -0.057058785 -0.08890884 -0.028824838
0002e0 ac ea 53 bd 22 eb b9 3d 68 b4 a4 bd 87 59 67 3d
       -0.051737472 0.09078051 -0.08042222 0.056481864
0002f0 5b e3 ad bd 6c f2 80 3d 34 c9 a2 3c f5 47 a3 3d
       -0.0849063 0.06296238 0.019871332 0.07972709
000300 2d af 44 3e 96 da 0d bd b5 66 97 bd c1 f2 b1 bc
       0.1920745 -0.034632288 -0.07392637 -0.0217222
000310 40 9e 3c 3e e9 7c 72 3d 11 9a df bd a1 dd 0e 3e
       0.18419743 0.059201155 -0.10918058 0.13951732
000320 63 49 82 3c 0f b6 35 3d 9d 49 d3 3d 74 ce fc bd
       0.015904134 0.044363078 0.10316775 -0.12344065
000330 29 b6 da 3d 1f 7d 13 3e f7 dc 38 3e 35 a7 42 3e
       0.106792755 0.14403199 0.18053041 0.19009097
000340 92 65 ae b9 2e 21 3c 3e 2a 1d 57 bc bc 97 fd 3d
       -0.00033263542 0.18372032 -0.013129512 0.12382457
000350 65 0e de 3d d0 16 95 3d 8d ed 1f 3c 9f 40 21 be
       0.10842589 0.07279742 0.009761226 -0.15747307
000360 e5 6e 0a 3e 75 f3 46 3d 61 dc 31 bc ef 8d 6d 3d
       0.13518865 0.048572022 -0.010855765 0.057996687
000370 ca a4 f2 bd 09 cc 24 3d 43 c1 0e be 48 06 67 3c
       -0.11847837 0.040233646 -0.13940911 0.014100619
000380 9b 50 ca 3d f5 09 3f be a9 ca 0d 3d 53 fc 66 bd
       0.098786555 -0.18656142 0.0346171 -0.05639298
000390 62 f7 80 3d b2 d7 14 3e 17 de 3f be 91 2c 10 bd
       0.062971845 0.14535406 -0.18737064 -0.03519875
0003a0 9e 2a 25 be 85 a9 38 3c 4b 63 dd bc 82 a7 26 3e
       -0.16129538 0.011270885 -0.027024886 0.16274837
0003b0 94 d2 a1 3d 02 fc c2 bd a6 f2 ef bd ae 8e d4 3d
       0.07901493 -0.09520723 -0.117162034 0.103787765
0003c0 ec 0a 84 bd 26 34 0a 3d 83 e4 9a bd ee 62 e2 bc
       -0.06447396 0.03374114 -0.075631164 -0.027635064
0003d0 d8 37 ae 3d b4 02 1a 3e 5c ed 9c bc 3b 42 2b 3c
       0.08506745 0.15040094 -0.01915615 0.010452802
0003e0 6e d8 03 3e 62 15 6f 3c 15 8d c6 ba f8 12 1a be
       0.1287553 0.0145925 -0.0015148247 -0.15046299
0003f0 15 60 13 3d 4f fa 37 3e 0c a0 15 bd d1 19 3e be
       0.035980303 0.17966579 -0.036529586 -0.18564536

conv_block_1.0.bias f4 [10]
000000 73 00 1e 3e 6c 52 25 3e ba cd eb bd 15 c1 46 3e
       0.15429859 0.16144723 -0.115138486 0.19409592
000010 44 6c 7e bc 1b 8a 01 be 7c b4 42 be 6a 4a 2d be
       -0.015528742 -0.1265034 -0.19014162 -0.16922918
000020 fb d5 9a 3d e0 22 a8 3d
       0.07560345 0.08209777

conv_block_1.2.weight f4 [10, 10, 3, 3]
000000 99 c6 84 3d 1a ec 6c 3d 07 07 38 3d af 12 9b bc
       0.06483192 0.05784235 0.044928577 -0.018929807
000010 62 b7 56 3d 75 d5 c1 bd 19 2c 06 3d 14 d4 7a bc
       0.05242098 -0.09464542 0.0327569 -0.015309352
000020 61 c8 7e 3d 20 70 27 bd 52 78 48 bc eb d9 d0 bc
       0.062202815 -0.040878415 -0.012235718 -0.025494536
000030 30 48 61 bd 15 a2 c5 3d 44 bf e6 bc aa 4a aa 3d
       -0.055000484 0.09650055 -0.028167374 0.08315022
000040 6e c2 ca bd 7b ef 92 bd 00 46 8b bd 87 51 89 3d
       -0.09900366 -0.071745835 -0.06800461 0.06705003
000050 e8 7d a1 bd ef 0a 3b bc 8e e3 ae bc 94 0e 2d 3c
       -0.07885343 -0.011416181 -0.02134874 0.010562558
000060 2d 31 0f 3c 76 fc 31 bd 54 25 ea bc f1 5b d9 3c
       0.008739752 -0.043453656 -0.028582253 0.026533099
000070 c6 dd b9 bc 29 ed 00 bd dc 10 81 3c b5 24 89 3c
       -0.022688758 -0.031476174 0.01575511 0.016741136
000080 17 81 87 3c 45 ca 41 bc 7d ed 10 ba c0 8d 99 bd
       0.016541047 -0.01182801 -0.00055285526 -0.0749774
000090 c4 87 72 3d 03 0f 89 3d 1a ef b4 3c 84 54 93 3d
       0.059211507 0.066923164 0.022086669 0.071938545
0000a0 40 32 bf bd a7 5d 15 3d 45 97 5e bc e8 37 ba 3d
       -0.09335756 0.036466267 -0.01358587 0.090926945
0000b0 b2 31 8d bd 59 33 5a bc 6b f5 3d bd 7e 7e d6 3d
       -0.06894244 -0.013317906 -0.046376627 0.10473345
0000c0 6b e3 1e bd 87 b2 14 3d dc 5d a8 3d 20 c9 5d bd
       -0.0387911 0.03630307 0.08221027 -0.054146886
0000d0 34 36 aa bc a3 bb b5 bd 0c 88 ca 3d 7c 5b 2b bd
       -0.0207778 -0.088736795 0.0988923 -0.041835293
0000e0 19 fd 80 3d ea 9a b1 bd c6 38 d2 bd 6c 04 a0 bd
       0.062982745 -0.08672126 -0.10264735 -0.078133434
0000f0 a7 01 b3 3d 02 9a 43 3d 9a 66 96 bd 41 5e 9b bb
       0.087405495 0.047754295 -0.073437884 -0.0047414606
000100 54 eb 84 3c 67 7b 36 3d db 18 87 bc b2 9f 0e bd
       0.016225494 0.04455128 -0.016491344 -0.034820266
000110 ea 34 f3 ba 16 31 9d bd ee 44 42 3d a5 65 71 3d
       -0.0018555198 -0.07675378 0.047429018 0.058934826
000120 b8 4e 38 bd 16 9e ae bc 9b ae 59 3c 92 6b 63 3d
       -0.044996947 -0.021315616 0.013286258 0.05552251
000130 fc 50 7d bc 65 a9 b1 3c 47 80 4e 3d e0 d1 b2 3d
       -0.015461203 0.021687219 0.050415304 0.08731437
000140 af f0 0f 3d 68 0c 80 bd 4a 80 84 bd b1 80 aa bd
       0.035141643 -0.06252366 -0.06469782 -0.08325327
000150 31 20 df bb 6f 4e d9 bc d4 f9 20 bd 7a d9 d2 3d
       -0.0068092574 -0.026526658 -0.039300755 0.102953866
000160 56 c5 c4 bd 05 0d ce 3d c8 2e a3 3d ae ca cb 3d
       -0.09607951 0.10061077 0.07967907 0.099507675
000170 6a 39 c1 bd 31 d0 58 3d 56 5f ab bd 85 17 30 bd
       -0.09434779 0.05293292 -0.08367793 -0.04299118
000180 42 9f 38 3c d5 01 b5 bd d9 ad c9 bd 89 13 94 3c
       0.011268439 -0.0883824 -0.09847612 0.018075721
000190 28 bf 0d bd db f4 e6 bb c4 7f 9a 3d b4 ba cc bc
       -0.03460613 -0.007048232 0.075439006 -0.02499137
0001a0 d4 3e 5b bb cf be be 3d 65 3c a7 3d c0 81 26 bd
       -0.0033454197 0.093137376 0.08165816 -0.040651083
0001b0 6d 6c 3d 3d 00 13 0c bd 57 1c be bd 18 49 05 3c
       0.04624598 -0.034197807 -0.09282749 0.008135103
0001c0 dd 5e 3c 3c 94 a6 d3 bc 68 f7 1f bc ff 15 aa bd
       0.011497227 -0.025836267 -0.009763576 -0.08304977
0001d0 a9 18 ef 3c 81 25 bc bd 65 ad 8c 3c b0 b9 6c 3c
       0.029186564 -0.09186841 0.017172525 0.014448568
0001e0 a9 d8 55 3d 70 8f 0b 3d 1f 2d ce 3d 35 52 69 3d
       0.052208576 0.03407234 0.100672 0.056963164
0001f0 0b 8f 44 3d 98 ab 79 3d 88 48 76 bc a6 88 a7 bd
       0.04798798 0.06095466 -0.015031941 -0.081803605
000200 4d 07 d3 3d df f5 a7 3d 2c a6 e1 3d 6f a8 df bc
       0.10304127 0.08201193 0.11018023 -0.027301995
000210 76 95 64 bc 8f 82 08 3d 33 23 a6 3b 35 4f 30 3c
       -0.01395165 0.033327635 0.005070114 0.010761072
000220 39 18 45 3d ab 51 c8 3c bb 6f 87 bd 1e 1f 9d 3c
       0.048118804 0.024453005 -0.06613108 0.019179877
000230 ba 65 c4 3d 72 cf c6 3c f1 03 df bc 8e f1 6a bd
       0.09589715 0.02426884 -0.02722356 -0.05735927
000240 54 08 c1 3d 22 1d a7 3d 55 18 f7 3c f3 d4 38 bd
       0.094254166 0.081598535 0.03016297 -0.04512496
000250 7f fb a0 3d 71 3f d1 bd df 43 85 bd 79 38 a4 bd
       0.07860469 -0.102171786 -0.06507086 -0.08018584
000260 6b f4 32 bd d6 7c 7f bd f5 4c 32 bd fa c7 31 3b
       -0.043690126 -0.062374912 -0.043530423 0.0027127252
000270 1d 1b c2 3d fc 01 89 3c 34 c6 bf 3c ee 46 cf 3d
       0.09477828 0.016724579 0.02340994 0.10120951
000280 c6 f8 db 3d 0e 9d 5b bc b1 90 83 3d f7 06 b2 3d
       0.10740809 -0.013404144 0.06424082 0.08692735
000290 a7 a4 b5 bd e9 0e bd 3b 22 72 ab 3b af 15 d7 bd
       -0.088692956 0.0057695997 0.0052321116 -0.10502183
0002a0 3f 2d 80 3d 8e c1 a4 bd e5 46 d3 3c 0a fb ff bc
       0.0625863 -0.0804473 0.025790641 -0.031247634
0002b0 d5 7f d0 3c 83 78 91 3d e9 4c 4d 3d 0e 55 67 bd
       0.02545158 0.07103064 0.050122175 -0.0564776
0002c0 34 55 50 bd 20 22 ab bd 53 59 c4 3d b5 f8 7e 3d
       -0.050862506 -0.08356118 0.0958735 0.062248904
0002d0 74 9e a4 bb 82 c6 7e bd 3c c3 4c bd f1 32 c8 bc
       -0.005023772 -0.06220103 -0.049990878 -0.024438353
0002e0 f9 81 ca bd f6 23 8e 3d 5f b5 26 bb c1 b4 0f bd
       -0.098880716 0.06940453 -0.0025437695 -0.03508449
0002f0 81 ab d5 3d c9 1c aa bd db 2f 3e bd fb 2f cb 3d
       0.104331024 -0.083062716 -0.046432357 0.09921261
000300 00 18 80 bd 81 38 9c 3d 0f 2e 94 bd 55 04 53 3c
       -0.06254578 0.07627965 -0.072353475 0.012879451
000310 3c fd d0 bc de b2 83 bd de 09 20 bd f7 35 b6 3d
       -0.025511377 -0.064306006 -0.03907191 0.08897012
000320 0a b4 2b 3d f7 9c 5a bc ce 97 a7 bd 68 53 8a 3d
       0.041919746 -0.013343087 -0.08183251 0.0675419
000330 4f 17 af bd f0 66 bd 3d 0e 64 ae bd 92 da 6d 3d
       -0.08549368 0.092481494 -0.08515178 0.058069773
000340 ac 63 86 3d a4 9f 4a bc 27 55 82 3d b9 95 bc 3d
       0.0656198 -0.012367163 0.06363898 0.09208245
000350 85 9b 84 bc 47 ae db 3d c3 dc be bd 76 34 44 3d
       -0.016187439 0.107266 -0.09319451 0.047901593
000360 c7 0c b6 3d fb 95 e2 bc 82 cf 8c 3d 68 c4 db 3d
       0.08889156 -0.027659407 0.068755165 0.10730821
000370 a6 66 81 3b 27 48 ae 3d ec 15 c6 3d ab b9 7c 3d
       0.003949004 0.08509856 0.0967215 0.061700504
000380 81 db 54 3d 5d 3e cb bd 8a 38 2e bd 4c 8a 41 bd
       0.051967148 -0.09924004 -0.04253439 -0.04725103
000390 7d 31 b5 bd 9f 8c d0 3d dd a6 f8 3c 29 a5 b4 bd
       -0.0884733 0.10183071 0.030353004 -0.08820564
0003a0 30 f6 5b 3d 62 0f 3b bd 79 e9 61 bd 02 1d a3 bc
       0.05370158 -0.045668967 -0.055154298 -0.019911293
0003b0 ef 48 2a bd d8 7c 18 ba a0 53 80 3d 64 18 51 bd
       -0.04157346 -0.0005816943 0.0626595 -0.05104865
0003c0 aa 11 92 bd 24 39 3a bd dc 56 2d 3d 29 cb 2f bd
       -0.071322754 -0.04546465 0.042319164 -0.042918358
0003d0 07 cd 87 bd 65 dc 1e 3d 19 cd 18 3d 64 85 50 3d
       -0.06630903 0.038784403 0.03730497 0.05090846
0003e0 19 30 d7 3d 81 da 61 3d f3 60 be 3d f4 e1 b4 3d
       0.10507221 0.055140022 0.09295835 0.0883216
0003f0 a2 2d 91 3d 89 cb 8a 3d 64 50 28 3d 33 86 52 3d
       0.07088782 0.067771025 0.04109229 0.051397514

conv_block_1.2.bias f4 [10]
000000 ea b6 0a bd ab 8d 8b 3d e0 2b bb bd f1 a5 6b bd
       -0.033865847 0.068141304 -0.09139228 -0.0575313
000010 39 fd 38 bd 59 49 a7 3d 0c 5e f0 bc ca 1a c6 3d
       -0.045163367 0.08168287 -0.02934172 0.09673078
000020 b8 e8 cb 3d aa 1d 8c bc
       0.09956497 -0.017103989

conv_block_2.0.weight f4 [10, 10, 3, 3]
000000 f7 a0 95 bd b6 06 d5 3d ec 78 44 3d ae 53 f5 39
       -0.07306092 0.10401671 0.047966883 0.00046792388
000010 d0 e4 7c 3d f2 81 6a 3d b4 5b ba bd ac e0 c5 3d
       0.06174165 0.05725283 -0.09099522 0.096619934
000020 d5 3e be bd 21 8c a6 3d 16 1a 17 bc 43 61 d9 bc
       -0.09289328 0.08132196 -0.009222528 -0.026535636
000030 f9 6a 9e 3d 5f 6b 55 3d d9 5d 85 3d fc 1b 3a 3c
       0.07735247 0.05210435 0.06512041 0.011359211
000040 e9 30 b2 bb f8 df 52 bd 7f 3f 50 3d 4d bd a4 3d
       -0.0054379595 -0.051483124 0.050841805 0.08043919
000050 f5 31 99 bd 03 b9 c5 bd ab 75 a8 3b 4b a5 ab bd
       -0.07480232 -0.09654429 0.0051409802 -0.083811365
000060 7f ad b3 bd b9 2c b8 3d 05 9e 73 bd ea 59 d3 bc
       -0.08773326 0.08992905 -0.05947687 -0.02579971
000070 78 55 7b 3d 13 6c 49 bd eb 05 69 3d cd 9b 60 3d
       0.061360806 -0.049175333 0.05689041 0.054836083
000080 46 34 d3 bd b0 e0 81 bc eb 91 a4 bd 1a 36 53 3c
       -0.10312705 -0.01585421 -0.08035644 0.012891317
000090 4b ea 92 bd d9 10 da bb 5b 94 45 3d 61 de 0d bd
       -0.07173594 -0.0066548404 0.048237186 -0.034635905
0000a0 96 09 84 3d 4d 68 ba 3d 29 ad 55 bd 64 66 aa 3d
       0.06447141 0.09101925 -0.05216709 0.08320311
0000b0 3e f7 0a 3d c8 44 81 bd 88 5e 7d bc de 9f 17 bd
       0.033927195 -0.06311947 -0.015464433 -0.037017696
0000c0 f7 da aa bd ae f4 3a bd f1 71 a3 bd 4c 92 2d 3d
       -0.083425455 -0.0456435 -0.07980717 0.042375848
0000d0 ae c8 bd bc 59 21 b1 3d 03 79 ac 3d 8d 5e b3 bd
       -0.02316698 0.08648939 0.08421519 -0.087582685
0000e0 95 c4 be bd 8b 64 b9 bd 71 bd c0 3c c1 03 74 3d
       -0.09314839 -0.0905238 0.023527833 0.059573893
0000f0 4b 69 6c bd 60 8a 1a bd e7 d3 29 bd 57 4e f8 bc
       -0.057717603 -0.03772962 -0.04146185 -0.030310793
000100 ef 76 08 bd 79 a2 c4 bd 2d f4 bc bd af 28 74 bc
       -0.03331655 -0.09601302 -0.0922626 -0.014902278
000110 08 bb 92 bd ad 8c 41 bb f0 dc f0 3c 0b 1e b0 3d
       -0.0716458 -0.0029533312 0.029402226 0.0859948
000120 57 5c 69 bd 5a 96 a4 bd 63 fa 98 3b ec b7 b8 bd
       -0.056972828 -0.0803649 0.0046685203 -0.09019455
000130 79 da b6 bd a0 97 a7 bd a0 b8 97 bd 0a d6 09 bd
       -0.08928389 -0.08183217 -0.07408261 -0.03365139
000140 27 5b cf 3b 4f 6a d5 bd 0d 8c cf bd 96 01 9c 3d
       0.006328005 -0.104206674 -0.101341344 0.0761749
000150 f9 80 8f 3d 95 7f f7 bc 5e 6f 0f 3c 76 07 c7 3c
       0.070070215 -0.030212203 0.008754579 0.02429555
000160 32 6a 78 3c 20 a1 ff bc 7b 54 a3 3d 6d 70 23 bd
       0.015162038 -0.03120476 0.07975098 -0.03990214
000170 05 1a c5 3d c2 3c 13 3d 50 fb ad bc 43 e9 08 bd
       0.096241035 0.035946615 -0.021238 -0.03342558
000180 45 c1 c2 3d c8 a4 d3 ba 1e fa 88 bd 33 c4 45 bd
       0.095095195 -0.0016147131 -0.06688331 -0.048282813
000190 e2 ba c4 3c 2b 20 b5 bd 25 b4 f0 3c af 6a bd 3b
       0.024014894 -0.08844026 0.029382775 0.00578054
0001a0 84 fd c5 bb 50 55 1c bd 6e 09 cc bd 05 17 ce ba
       -0.0060421843 -0.038167298 -0.09962736 -0.0015723413
0001b0 9d 0c bc bd 7e 92 8a bd 6f f3 88 bd fc 4e 62 3c
       -0.09182093 -0.067662224 -0.06687056 0.013812777
0001c0 1c 75 37 bd 2c 8d c7 bd b4 53 9e bd cc c9 88 3a
       -0.04478942 -0.09743723 -0.07730809 0.0010436117
0001d0 0b e4 a8 bd ea 6a 2a bd 41 c1 35 3d 89 34 68 3d
       -0.08246621 -0.041605867 0.044373754 0.056690726
0001e0 80 96 ee bc a8 7f 7e 3d 56 37 04 bb 2c 12 4e bc
       -0.029124498 0.06213346 -0.0020174584 -0.012577575
0001f0 db bc 90 3d 95 ec a6 3d f1 23 9b bd 60 72 87 bc
       0.07067271 0.08150593 -0.07575215 -0.01653403
000200 5a d0 9a bc d1 db f1 bc d4 96 34 bd 17 18 e4 3a
       -0.018898178 -0.029523762 -0.044089153 0.0017402199
000210 ba 95 94 bd 48 8f 09 3c 0f 46 6b bc 8a e5 71 3d
       -0.072551206 0.008395977 -0.014359965 0.059056796
000220 12 57 cb bd cb 3e b9 bd 24 7c bc 3b e3 82 dd bc
       -0.09928717 -0.0904518 0.0057521034 -0.02703995
000230 d5 bc ab bd 7b 4a 03 bd 82 c1 9b bd 8f 0c 2d bd
       -0.08385626 -0.032053452 -0.07605268 -0.042248305
000240 64 62 8c bc 68 03 7d 3d 2f 6f ac 3c 56 34 d1 3a
       -0.01713676 0.061770827 0.02104911 0.0015961032
000250 4c 85 83 bd 14 e1 b9 3d 2c 7a 8d 3c 7a e4 2c 3d
       -0.06421909 0.09076133 0.01727017 0.04221008
000260 aa b4 0a 3d e8 d1 9e bc ec d4 76 3d 8b 88 34 bd
       0.0338637 -0.0193872 0.060261652 -0.04407553
000270 1a b8 c9 3b e3 03 72 bd f0 e8 bd bc 1c 4b 8d 3c
       0.00615598 -0.059085738 -0.023182362 0.017247729
000280 e7 36 52 bc 45 aa 40 bd b9 2d 13 bd c2 17 b0 3d
       -0.012830473 -0.04703738 -0.035932276 0.085982814
000290 24 ef be bc d3 a2 89 bd 0d 86 5a 3d 17 e3 99 bd
       -0.02330739 -0.067205094 0.053350497 -0.07514017
0002a0 2c 53 8d bc 6b 00 a1 3d d0 a9 c2 3d 5b 87 c7 bd
       -0.017251574 0.07861408 0.095050454 -0.09742614
0002b0 eb 8a a0 3d e9 29 8d 3d db ca 8c bd 5e 74 82 3d
       0.078389965 0.06892759 -0.06874629 0.063698515
0002c0 54 4f c1 bb 00 a8 49 3d dd f4 3b bd c2 ed 5c bb
       -0.005899349 0.049232483 -0.045887817 -0.003371105
0002d0 73 a9 77 bc 1f de 03 bc 10 ff ee bb 42 93 80 3d
       -0.015116083 -0.008048563 -0.0072935894 0.06278087
0002e0 9c 52 c1 3d 63 9c 8b bd 2b 9c df bd 6d 1a 23 bc
       0.094395846 -0.06816938 -0.109184586 -0.009955031
0002f0 7e fc d3 bd 5f 9f b1 bd 03 5f c5 bd 51 b7 ce 3c
       -0.103508934 -0.08672976 -0.09637263 0.025233896
000300 6d d0 4e bd 54 db 95 bd 76 eb 8b 3d 08 14 91 bd
       -0.05049174 -0.07317224 0.0683202 -0.07083899
000310 9d 53 6e bd 04 c5 98 bd 68 30 83 3d 13 55 db 3c
       -0.05818521 -0.07459453 0.06405717 0.026773965
000320 a0 25 94 3d bb 8e b4 bd 80 6e be bd 68 73 97 bd
       0.07233739 -0.08816286 -0.0929842 -0.07395059
000330 25 0b 48 3d 73 e9 8d bd 18 1f c9 3b cc d9 d7 3c
       0.048838753 -0.069292925 0.00613774 0.02634897
000340 22 6c 0a bc b1 8c 66 3c 87 15 bb bd 20 60 c5 3d
       -0.008448632 0.014071629 -0.091349654 0.09637475
000350 c8 a7 c0 3d a6 71 d1 3d df 5a 37 bd a8 0b 6a 3c
       0.09407002 0.10226755 -0.044764396 0.014285006
000360 f7 d9 32 3d 41 e6 8b ba 0f de 8f bd 2b 55 7f 3d
       0.0436649 -0.0010673479 -0.07024776 0.062337082
000370 ee 50 96 3c bb 75 cb 3d e8 a1 87 3d 35 2c 26 3d
       0.018349137 0.09934565 0.06622678 0.040569503
000380 e7 12 d0 bd 71 1e 7f 3d 4a 43 4e 3d e6 ab 54 3d
       -0.10159855 0.06228489 0.05035714 0.051921748
000390 35 26 47 bc f5 47 6e bd a9 aa 6a bd cf 17 34 bc
       -0.012155105 -0.058174092 -0.05729166 -0.010992005
0003a0 1e fc 4a bd 54 00 13 3c 10 69 7d bc 67 ed 77 3c
       -0.049556844 0.008972246 -0.015466943 0.015132285
0003b0 1b e4 b1 bd 9e 30 08 bd 65 04 a5 bd 18 69 31 bc
       -0.08686086 -0.03324949 -0.08057479 -0.010828279
0003c0 cb 7e 85 bd b1 d9 b1 bd 6c 1c 88 3d cb 3b 32 bd
       -0.065183245 -0.086840995 0.06646046 -0.043514054
0003d0 69 0a c5 3c d4 cb 3f bb c4 8f db bd e2 81 d4 bd
       0.024052816 -0.0029265778 -0.107207805 -0.10376336
0003e0 6e cf 4d 3d 10 70 af 3c b6 4c aa bb 27 c1 88 bc
       0.05024665 0.02141574 -0.005197133 -0.016693665
0003f0 9c f0 83 bd 9d ad 64 3c b9 50 97 bd a0 e4 bd bd
       -0.06442377 0.013957408 -0.073884435 -0.092721224

conv_block_2.0.bias f4 [10]
000000 95 23 cd bd 57 8b 66 3d e0 1d 8a 3d f4 0f a6 3c
       -0.10016552 0.05628523 0.067439795 0.020271279
000010 85 1d b4 3d dd 61 8b bd de 02 9b bd 81 48 b2 bd
       0.08794693 -0.06805775 -0.07568906 -0.08705235
000020 58 25 13 bd e1 06 1b bc
       -0.035924286 -0.009462089

conv_block_2.2.weight f4 [10, 10, 3, 3]
000000 b2 e1 cd bd c8 c7 d2 3d be 00 c4 bd e9 a5 d5 bc
       -0.100528136 0.102920115 -0.09570454 -0.026080089
000010 93 da 77 3d 63 fe c2 bd 16 38 3c bd f7 58 6f 3d
       0.060511183 -0.09521177 -0.045951925 0.058434453
000020 b2 48 48 3d 35 b0 92 3c b4 12 23 3d f2 59 06 3d
       0.048897453 0.017906288 0.03981276 0.032800622
000030 f1 81 76 bc 4b a4 8a 3d 73 df 7c 3d c3 9a cd bd
       -0.015045629 0.06769618 0.061736535 -0.10039284
000040 3b d6 18 3c 18 bc ab 3a c8 bc 4b bd 53 ca 64 3d
       0.00932842 0.0013102321 -0.049740583 0.055857014
000050 d6 3b 41 bd eb 9b 42 bd cb 39 8d 3c 19 25 09 3d
       -0.047176205 -0.047511976 0.017239472 0.033482645
000060 b1 5f f1 bc 81 cf fb 3c 33 05 22 3d 47 90 9c bb
       -0.029464575 0.030738594 0.03955574 -0.0047779414
000070 0d f6 e8 3c 81 80 b9 bc 6d d3 09 bd 28 53 98 3c
       0.028437639 -0.022644283 -0.033648897 0.01859434
000080 f2 9f da bc e5 a9 81 bd 3c 60 a8 3d 38 10 cd bc
       -0.026687596 -0.06331233 0.0822148 -0.025032148
000090 65 2d 53 3d d3 11 c7 bc a5 dc 55 3d c9 ed 73 3d
       0.051556963 -0.024300491 0.052212376 0.05955294
0000a0 a5 d8 78 bb fd 41 65 3d f0 d8 c3 3c 1c ae 1d bd
       -0.0037970927 0.055971134 0.023907155 -0.03849612
0000b0 29 45 ce 3c 76 e8 83 bd af a6 50 bd 47 5f 4d 3d
       0.025179463 -0.06440823 -0.05094021 0.05013969
0000c0 a3 12 88 bd da a5 8b bd f1 15 55 3d 19 bc 88 3d
       -0.0664418 -0.06818743 0.052022878 0.06676502
0000d0 7d 26 d6 bd 68 aa c6 3d 3a 11 d4 3d 4f 82 ac bd
       -0.1045656 0.09700471 0.10354848 -0.08423292
0000e0 22 db 62 bd 93 d3 8a bc 5d d9 44 3d e8 20 2d 3d
       -0.055384763 -0.01694659 0.048058856 0.04226771
0000f0 b4 29 2c 3d 0f 17 07 bd 0c a1 be 3b 21 df 47 3c
       0.04203196 -0.032980975 0.005817538 0.012199194
000100 89 6a a7 3c 0b e9 9c bd 09 99 da 3c 6f cd ad bc
       0.020436542 -0.07661637 0.026684301 -0.021216122
000110 1c 7b 8c ba ec 8b 8a bd ad ac a2 bd 5f 48 bb 3c
       -0.0010717842 -0.06764969 -0.079430915 0.022861658
000120 5f 24 aa 3a f1 0c cf 3c 2a a5 15 3d c0 04 fb 3b
       0.001298081 0.025274726 0.036534466 0.0076604784
000130 34 d4 50 39 4a 9d 23 3d 1f d5 f9 3c 95 d5 b6 bd
       0.00019915478 0.039944924 0.030497132 -0.08927456
000140 ab 62 e2 bc a0 3b 85 3c 1a eb b9 bd ee 06 bf 3c
       -0.02763494 0.016263783 -0.09078045 0.023318734
000150 65 b1 c0 3d 09 bd ed 3b c7 86 43 3c 3d 87 b6 bc
       0.09408835 0.0072552008 0.011933989 -0.022281284
000160 69 43 9b 3d 38 4c b9 bd 4d bb ce bc 69 f2 bf bd
       0.07581217 -0.09047741 -0.025235796 -0.09372408
000170 de 94 81 3d eb 33 49 3d ff 2c 13 3d 8d 5d c0 3d
       0.06327222 0.04912178 0.035931583 0.093928434
000180 5f 01 6f bd 62 7f 84 3d 62 d9 11 3c 9c 6d 8a 3d
       -0.058350917 0.06469609 0.008901926 0.067591876
000190 23 23 bc bd 87 09 52 3d 0c 41 d8 bb 8c a2 b0 3d
       -0.09186389 0.051278617 -0.006599551 0.08624753
0001a0 61 16 85 bd d6 6e d1 3b 8e b6 36 bd af 97 99 bd
       -0.06498409 0.0063913865 -0.04460769 -0.074996345
0001b0 e2 2e 91 3d af 56 c6 3d fe 19 9c bc f4 41 dd bc
       0.0708902 0.09684502 -0.019055363 -0.027008988
0001c0 22 a7 87 3c a5 bf d2 bd 94 36 bd 3d 50 4b 9b bb
       0.016559187 -0.102904595 0.092389256 -0.0047392026
0001d0 b5 8a af bb 6c d6 fc bc b4 4e 4c 3c b9 b0 46 bd
       -0.0053571113 -0.030863963 0.012469936 -0.04850838
0001e0 5f fe c8 bb 8a 70 ab 3d 99 3b 83 3d c3 74 fe bc
       -0.006133839 0.083710745 0.06407852 -0.031061536
0001f0 04 ec a6 bc d2 52 58 bd 44 95 62 3d c3 9a 21 3c
       -0.020376213 -0.05281336 0.055318132 0.009863558
000200 a7 c9 8f bb 8d d3 c0 3c 26 e7 f1 bc 7f 7b 77 bc
       -0.0043880525 0.023538375 -0.029529165 -0.015105127
000210 30 27 9c bd 3d 0a d0 3c d9 9b b6 bd e8 fb b4 bd
       -0.07624662 0.025395507 -0.08916444 -0.0883711
000220 be 20 19 bd 9e e4 a5 bd a9 6e 89 3c e9 23 ab 3d
       -0.03738474 -0.08100246 0.0167764 0.08356459
000230 a6 fb 8a bd ae 4b 5e 3d 49 8f 5e bd 14 ff ed bc
       -0.067862794 0.054271393 -0.054335866 -0.029052295
000240 36 44 b6 3d a1 13 9d bd 65 df 96 3d 7d 8c 2c 3c
       0.08899729 -0.076697595 0.07366828 0.010531542
000250 96 a4 ce bb 87 8a a8 bd 70 f7 8c bd 63 31 0f 3c
       -0.0063062413 -0.08229547 -0.068831325 0.008739802
000260 a6 dd 14 3d 7e ee 89 3d 87 dd 8e 3d cb 89 20 bd
       0.036344193 0.06734942 0.06975847 -0.03919391
000270 12 d2 0c 3d 6a d9 cc 3d e4 82 6e 3c 71 35 6e 3d
       0.034380026 0.10002406 0.014557574 0.058156434
000280 be 33 99 bd f1 2d 9e 3d ca e4 38 bd 56 d6 88 bd
       -0.07480572 0.077236064 -0.045140065 -0.06681506
000290 97 bd 9a 3c d9 86 ea 3c cf 8a 8b bd eb 43 c1 3d
       0.018889232 0.028628753 -0.06813585 0.094367824
0002a0 c3 7c a7 3d 80 d7 88 3c ab 33 8f bd 30 14 91 3d
       0.08178093 0.01670432 -0.06992277 0.070839286
0002b0 40 36 b7 bd 1e d9 89 bd 45 82 9e bd f9 78 9a bd
       -0.08945894 -0.06730865 -0.07739691 -0.07542605
0002c0 8e 4d 54 bd 86 92 d1 bd ee 94 35 3d 02 e8 10 3d
       -0.051831774 -0.10233025 0.044331484 0.03537751
0002d0 1e 5b 9d bd 91 e0 fe bc eb 40 13 3d 30 8b 02 bd
       -0.07683395 -0.031112941 0.035950582 -0.03187102
0002e0 1b 7b ed bb 33 12 69 bd 82 af 83 3d 8b 1d 4d 3d
       -0.0072473413 -0.05690212 0.0642996 0.050077002
0002f0 05 98 61 3d 58 59 b8 3d df 7d c7 3d c3 0a 1c 3d
       0.055076618 0.09001416 0.09740805 0.0380962
000300 01 20 96 3d a3 0b 66 3d 95 b5 31 bc c8 83 a1 bc
       0.07330323 0.05616344 -0.010846515 -0.019716159
000310 7e 62 4b 3d 9f ec 0b 3d 7d d6 43 3d e7 99 b6 3d
       0.049654476 0.034161206 0.047811974 0.08916073
000320 85 fe b9 bb 18 40 48 bd ff dc d3 bd ee 1b 3e 3c
       -0.005676093 -0.04888925 -0.10344886 0.011603339
000330 6c 1c 93 3d c8 2e 06 bd 94 cf be bd b5 ab c9 bd
       0.071831554 -0.032759458 -0.09316936 -0.09847204
000340 6a 38 5c 3d 38 29 09 bd e1 ff a8 3d e2 cd c8 3b
       0.05376474 -0.033486575 0.0825193 0.006128059
000350 bb 08 fd 3c 28 a1 72 3d cd fe 15 3d 32 f9 7a 3d
       0.030887952 0.05923572 0.03661995 0.061272807
000360 b2 de 26 bd 01 86 6a bd d9 28 be bd b6 3c 84 bc
       -0.040739723 -0.057256702 -0.09285135 -0.01614223
000370 ff ef 47 bb 14 c7 6f 3c 9f 29 d2 bb 0b c9 cc 3d
       -0.003050804 0.014634866 -0.006413653 0.099992834
000380 6d b8 94 bd a5 09 50 3d aa 1d 7f 3d 00 91 9b bd
       -0.07261739 0.050790448 0.06228415 -0.07596016
000390 cf 78 f3 bb 14 74 81 bd d1 45 af bd 8d 50 e7 bc
       -0.007430173 -0.06320968 -0.08558238 -0.028236652
0003a0 4e e6 37 bc 1b ea 9c 3d 88 5a 99 3d cf 0b 11 3d
       -0.0112243425 0.076618396 0.074879706 0.035411652
0003b0 0b 52 bf 3d 2a 09 d3 3d d0 e5 cc bd 49 61 c6 bc
       0.0934182 0.10304482 -0.10004771 -0.024216311
0003c0 85 db ba bd 57 09 89 3d 43 18 25 3d a6 10 a2 3d
       -0.09123901 0.066912346 0.04030634 0.07913332
0003d0 2b 06 32 3d d0 4b d3 bc 28 b9 41 bd 65 a4 cf bd
       0.043462913 -0.025792986 -0.04729572 -0.10138778
0003e0 46 c3 c9 bc ff 22 70 bc a9 cc 5a 3d 1c 81 3b 3d
       -0.024629246 -0.014656781 0.053417835 0.045777425
0003f0 a2 f7 b4 bc e2 05 d0 bd f5 4f d3 3d 1c 89 b7 bd
       -0.022090737 -0.10157372 0.10317985 -0.089616984

conv_block_2.2.bias f4 [10]
000000 85 aa e6 bc b3 29 73 bc 43 98 54 bd fa 9a ad bd
       -0.028157482 -0.014841485 -0.05190302 -0.08476825
000010 c3 fb 47 3d dc 52 17 3d 7e 7f d1 3c 1c 0a 89 bd
       0.048824083 0.036944255 0.025573488 -0.06691381
000020 65 27 f3 bc 59 42 b9 3d
       -0.02968187 0.09045858

classifier.1.weight f4 [3, 1690]
000000 17 dd 6c bc 46 c9 a8 3b 02 00 dd 3b 7c a7 5b bb
       -0.014457009 0.005150947 0.0067443857 -0.0033516577
000010 b5 03 83 3c dc 01 3b bb a7 47 3c 3c 7c 75 74 3c
       0.015992979 -0.0028535044 0.011491693 0.014920589
000020 b4 bd af 38 1c 9c 6c 3c 0e 35 06 bc 52 a9 c9 3c
       8.379985e-05 0.014441516 -0.00819136 0.024616871
000030 a8 3a a1 bc db 04 be 3b bb 83 df ba 04 5c a4 3c
       -0.01968129 0.0057989187 -0.0017052809 0.020063408
000040 69 53 9d 3a 0e 9b 09 3b a3 a3 a1 bc b5 8c 19 3c
       0.0012003008 0.002099696 -0.019731348 0.009371926
000050 eb 02 a6 3c c4 88 a5 bc b5 17 04 3c 92 f0 c2 bb
       0.020265063 -0.020206816 0.008062293 -0.0059490884
000060 e1 c4 e9 ba bc 57 4c 3c 84 99 9a 3c c2 15 a3 3c
       -0.0017835164 0.012472089 0.01887203 0.019907836
000070 17 69 14 bc bc 4b 8e bc 80 cf 52 3c 22 de 7b bc
       -0.0090582585 -0.017370097 0.012866855 -0.015372785
000080 42 aa 9d bc c2 8d a7 bc b7 1b f8 3a a3 12 78 bc
       -0.019246224 -0.020453338 0.0018929158 -0.015141162
000090 a4 de 4b 3c 37 81 17 bc 55 3a ed 3b 52 c5 94 3c
       0.012443218 -0.009247116 0.0072396197 0.018160496
0000a0 49 86 1c 3b 7e 11 9b 3c b8 d6 09 3c 9f 57 b5 bc
       0.002388375 0.01892924 0.008413009 -0.022136508
0000b0 71 2c 93 bc 85 a8 b1 bb 24 90 66 3c e3 90 85 bc
       -0.017965527 -0.0054217004 0.014072452 -0.016304439
0000c0 79 52 bb bc 13 3d 68 bc fb b8 0d 3c 77 8b bd bc
       -0.022866474 -0.0141747175 0.00865006 -0.023137791
0000d0 68 37 43 bc 96 6c fb ba b2 c1 5b 3c 9d 28 13 3b
       -0.011915065 -0.0019182141 0.01341288 0.0022454627
0000e0 f9 5b 9f 3c 87 75 7f 3c e7 d2 bc 3c 76 59 5e 3c
       0.019453036 0.015591986 0.023049785 0.013571134
0000f0 6e 4c bb 3c 7f d8 8a 3c 0e 34 46 3c 22 5f 85 3c
       0.022863593 0.016948937 0.012097372 0.016280714
000100 7d 3a c6 3c d7 c5 58 3b 85 62 00 3c 0b d0 9d bc
       0.024197811 0.0033076906 0.007835989 -0.019264242
000110 05 57 9e bc 82 ea 1f bb 9b ab 54 3b 66 21 b9 3c
       -0.019328604 -0.0024401252 0.0032450918 0.022598933
000120 0c 49 8d 3c 3d e1 1f 3c 10 b8 0d 3c 12 c6 94 bb
       0.017246746 0.009758291 0.008649841 -0.0045402134
000130 a8 d5 59 bb a1 a6 b2 bc 4e 21 34 3c 97 1f 09 3b
       -0.0033238921 -0.02180797 0.010994269 0.002092337
000140 1e 7b 93 3c 13 bc 7f bc 36 5d 83 3c 20 ff cc 3c
       0.018003043 -0.015608805 0.016035657 0.025023997
000150 d7 f6 97 3c 8a 2c 34 3b 26 2c a3 3c d4 d0 70 bc
       0.01855032 0.0027492368 0.019918513 -0.014698226
000160 6b 1c 96 3c 63 55 89 bb 60 5d 17 3c 41 8c a8 bc
       0.018324098 -0.004191087 0.009238571 -0.02057469
000170 15 f1 c0 3c 9f 24 7f 3c e6 fd a5 3c 8e 0d 2c 3c
       0.023552457 0.015572696 0.02026267 0.010501279
000180 ad 21 a7 3c a8 e5 eb 3b 26 c2 b3 3b 4f 30 35 bc
       0.0204018 0.007199008 0.005485791 -0.011058881
000190 e4 8b b8 3c f3 35 49 3c 46 d0 a5 3b 1d 22 33 3c
       0.022527643 0.012280929 0.0050602285 0.010933426
0001a0 0b 71 19 ba 1c fb 90 3c 84 fe a9 3c ce 93 d9 3c
       -0.00058533315 0.017697863 0.020751245 0.026559737
0001b0 7a ca 77 3c 04 14 90 3b 56 c4 ca 3c 33 32 93 3c
       0.015123958 0.0043969173 0.024751823 0.017968273
0001c0 4e 4b 9e bc 15 b2 cf 3b 5c 81 2e bb eb e1 9c bc
       -0.019323017 0.0063383677 -0.0026627397 -0.019150695
0001d0 7c ba 2c 3c 7e 5b bf 3c 02 ce 06 3c fc 10 27 3c
       0.010542508 0.023359057 0.008227827 0.0101969205
0001e0 3f 39 91 3c 7a 99 42 bc ad 03 b6 3c a9 a5 58 3c
       0.017727492 -0.011877412 0.02221855 0.01322309
0001f0 73 45 a0 39 79 be 14 3c bc 42 5d 3c 99 fa 6d bc
       0.00030569322 0.009078615 0.01350468 -0.014525079
000200 34 70 6a 3c 63 f6 b0 bc fa ae a6 bb 27 04 b1 bc
       0.014308978 -0.021601861 -0.005086777 -0.021608425
000210 b2 28 72 ba ce 5a 4f bc f7 24 a8 bc 79 41 36 3c
       -0.00092376315 -0.012655927 -0.020525439 0.011124008
000220 6e 18 9b ba 23 fc b3 3b 22 b0 cd bb 2a e1 88 3c
       -0.0011832842 0.0054927035 -0.0062771 0.01670893
000230 50 50 68 3c 0c 16 af 3c b5 12 af bc 5d 6b 0b 3b
       0.014179304 0.021372817 -0.021371225 0.002127371
000240 5e 40 9f bc 0f ed 92 bb 0c 3d b5 bc 80 49 56 bc
       -0.019439872 -0.004483826 -0.022123836 -0.013079047
000250 49 f8 7c bb d0 d2 0e bc 9a 3e 7c 3c 58 3e 29 3b
       -0.0038600138 -0.008717254 0.015395785 0.0025824513
000260 e2 7a b1 3c 37 22 ff bb 48 52 75 ba b6 45 7c 3c
       0.02166504 -0.007786061 -0.0009358269 0.01539748
000270 60 c1 90 bc 28 7e 1a 3b b9 ea 9c 3b 62 c9 a8 3c
       -0.017670333 0.002357373 0.0047887233 0.02060384
000280 fd 07 bc 3b b1 a4 c5 3c fb dc 53 3b 52 5f 5e 3c
       0.005738257 0.024126383 0.003232776 0.013572531
000290 96 df 17 3c 07 04 84 3c df 1c c6 bb 96 66 c7 39
       0.009269616 0.016115202 -0.006045922 0.0003803267
0002a0 eb 4f c0 bc f0 54 cc 37 e2 ae 90 3b d8 14 73 bc
       -0.023475608 2.4358247e-05 0.004415379 -0.0148365125
0002b0 b9 e2 36 bc 75 d7 b4 3c e6 6b b5 bc 67 e6 ed 3b
       -0.011162453 0.022075394 -0.022146177 0.007260132
0002c0 59 54 50 bb 9d 58 da b9 35 3d 6e bc fb 84 bb 3b
       -0.0031788556 -0.00041646222 -0.01454096 0.0057226396
0002d0 86 db b7 bc 59 7d 91 bc e1 51 99 bc ad 1a 25 3c
       -0.022443544 -0.017759966 -0.0187158 0.010077161
0002e0 ac ba 48 bc 8b 19 f8 bb 19 64 a6 3b ab a0 b3 3c
       -0.012251537 -0.0075714043 0.0050778505 0.021927198
0002f0 80 54 a6 bc 69 db 4a bc c9 e0 19 3b 29 9d 98 3b
       -0.020303965 -0.012381413 0.002347993 0.004657407
000300 ac 91 94 3c 5f a7 9e bb ef 58 a9 3c a5 17 8e 3c
       0.018135868 -0.0048417295 0.02067229 0.017345259
000310 5f fa c6 bc 96 90 62 3c 2f ee 5d 3c 39 a8 05 bc
       -0.024289308 0.013828417 0.013545557 -0.008157783
000320 d2 4a 63 3c 05 e1 97 3c 48 b5 8b 3c f6 a9 68 bc
       0.013872819 0.018539915 0.017054215 -0.014200678
000330 8b fd c7 bb 16 e3 7b 3c fd 36 70 bc 22 65 60 bc
       -0.0061032227 0.015373966 -0.014661548 -0.013695987
000340 14 d4 ae 3c f5 12 87 bc 69 48 9a bc 94 5b dc 3b
       0.021341361 -0.016488532 -0.018833356 0.006724784
000350 51 93 83 3c d1 54 bf bc 92 ee 2e 3c 4d ee 7a bc
       0.016061457 -0.023355873 0.010676997 -0.015315604
000360 34 da 21 bb cd 0f 8d 3b ff 55 3a 3c d7 26 3b bb
       -0.002469671 0.004304862 0.011373042 -0.0028557086
000370 1f 94 92 bb 3f b6 90 3c 2b b0 3d 3c cd 24 5a 3b
       -0.004473224 0.017665027 0.011577646 0.0033286095
000380 fb 07 be 3c e9 fb 16 3c 97 b7 52 b8 1b 02 a6 bc
       0.023197165 0.0092153335 -5.0238883e-05 -0.020264676
000390 38 db 06 3c d6 d9 b4 3c f4 dd 27 3c 85 3b da 3a
       0.008230977 0.022076529 0.010245789 0.0016649818
0003a0 c9 88 a6 3c c5 a6 07 3b 9c 6b be 3c ed 5c 87 3c
       0.020328896 0.0020698768 0.023244672 0.016523803
0003b0 2d 98 9f bc 30 95 56 bc 92 cf 57 3b af 53 3b 3c
       -0.019481743 -0.0130970925 0.0032930118 0.011433526
0003c0 23 fe 50 bc b1 d9 c1 3c 2e 23 c5 bc 52 2b 49 bc
       -0.012755903 0.023663374 -0.024064627 -0.012278395
0003d0 f9 80 b3 3c a3 c9 92 3c e7 eb a9 3b f0 f8 97 bc
       0.021912085 0.017918414 0.0051855925 -0.01855132
0003e0 34 19 c5 3c 5b 04 83 bb 83 c0 0d bc 50 90 b8 3c
       0.02405987 -0.003998322 -0.008651855 0.022529751
0003f0 1f 12 da 3b 19 22 81 bc 5a 26 70 bc 43 dc 17 bb
       0.0066549922 -0.01576333 -0.014657581 -0.0023172058

classifier.1.bias f4 [3]
000000 ac 35 aa 3b 05 47 97 bc 00 c4 b8 bc
       0.0051943865 -0.018466482 -0.022554398
